…
Keras電力需要予測モデルの学習を開始します...
=== 学習・テストデータ読み込み開始 ===
学習データを読み込み中...
学習データ形状: X_train=(23671, 4), y_train=(23671,)
テストデータ形状: X_test=(2631, 4), y_test=(2631,)
=== 学習・テストデータ読み込み完了 ===
=== データ標準化開始 ===
データの標準化を実行中...
標準化完了: 特徴量数=4, 目的変数正規化適用
=== データ標準化完了 ===
=== Kerasモデル構築開始 ===
Kerasモデルを構築中... (入力次元: 4)
改善版v3アーキテクチャ: 128→128→64→32→1
過学習対策v3: Dropout=0.1, L2正則化=0.001, Batch=64
Model: "sequential"
_________________________________________________________________
 Layer (type)                Output Shape              Param #   
=================================================================
 hidden1 (Dense)             (None, 128)               640       
                                                                 
 dropout1 (Dropout)          (None, 128)               0         
                                                                 
 hidden2 (Dense)             (None, 128)               16512     
                                                                 
 dropout2 (Dropout)          (None, 128)               0         
                                                                 
 hidden3 (Dense)             (None, 64)                8256      
                                                                 
 hidden4 (Dense)             (None, 32)                2080      
                                                                 
 output (Dense)              (None, 1)                 33        
                                                                 
=================================================================
Total params: 27521 (107.50 KB)
Trainable params: 27521 (107.50 KB)
Non-trainable params: 0 (0.00 Byte)
_________________________________________________________________
Kerasモデル構築完了 (学習率: 0.001, Batch: 64)
=== Kerasモデル構築完了 ===
=== モデル学習開始 ===
モデル学習開始 (epochs: 500, batch_size: 64, patience: 20)
…
